…
,"colab":{"base_uri":"https://localhost:8080/","height":1000},"executionInfo":{"status":"ok","timestamp":1668150954799,"user_tz":-540,"elapsed":1117,"user":{"displayName":"Byung-Gook Lee","userId":"12247138094797200549"}},"outputId":"0b0a0a94-ea7c-4dcc-dcc3-8a4d3d9c422d"},"outputs":[{"output_type":"stream","name":"stdout","text":["Model: \"sequential_5\"\n","_________________________________________________________________\n"," Layer (type)                Output Shape              Param #   \n","=================================================================\n"," flatten_5 (Flatten)         (None, 140)               0         \n","                                                                 \n"," dropout_35 (Dropout)        (None, 140)               0         \n","                                                                 \n"," dense_35 (Dense)            (None, 128)               18048     \n","                                                                 \n"," dropout_36 (Dropout)        (None, 128)               0         \n","                                                                 \n"," dense_36 (Dense)            (None, 85)                10965     \n","                                                                 \n"," dropout_37 (Dropout)        (None, 85)                0         \n","                                                                 \n"," dense_37 (Dense)            (None, 56)                4816      \n","                                                                 \n"," dropout_38 (Dropout)        (None, 56)                0         \n","                                                                 \n"," dense_38 (Dense)            (None, 37)                2109      \n","                                                                 \n"," dropout_39 (Dropout)        (None, 37)                0         \n","                                                                 \n"," dense_39 (Dense)            (None, 24)                912       \n","                                                                 \n"," dropout_40 (Dropout)        (None, 24)                0         \n","                                                                 \n"," dense_40 (Dense)            (None, 16)                400       \n","                                                                 \n"," dropout_41 (Dropout)        (None, 16)                0         \n","                                                                 \n"," dense_41 (Dense)            (None, 4)                 68        \n","                                                                 \n","=================================================================\n","Total params: 37,318\n","Trainable params: 37,318\n","Non-trainable params: 0\n","_________________________________________________________________\n"]},{"output_type":"execute_result","data":{"image/png":"…\n","text/plain":["<IPython.core.display
…
id":"i6FWIe6bLquW","executionInfo":{"status":"ok","timestamp":1665236511259,"user_tz":-540,"elapsed":599,"user":{"displayName":"Byung-Gook Lee","userId":"12247138094797200549"}},"outputId":"8d9bba7f-626a-476d-e488-72d68c95a280"},"id":"i6FWIe6bLquW","execution_count":null,"outputs":[{"output_type":"stream","name":"stdout","text":["Model: \"sequential_11\"\n","_________________________________________________________________\n"," Layer (type)                Output Shape              Param #   \n","=================================================================\n"," lstm_16 (LSTM)              (None, 4, 64)             23808     \n","                                                                 \n"," dropout_44 (Dropout)        (None, 4, 64)             0         \n","                                                                 \n"," lstm_17 (LSTM)              (None, 4, 64)             33024     \n","                                                                 \n"," dropout_45 (Dropout)        (None, 4, 64)             0         \n","                                                                 \n"," lstm_18 (LSTM)              (None, 4, 64)             33024     \n","                                                                 \n"," dropout_46 (Dropout)        (None, 4, 64)             0         \n","                                                                 \n"," lstm_19 (LSTM)              (None, 64)                33024     \n","                                                                 \n"," dropout_47 (Dropout)        (None, 64)                0         \n","                                                                 \n"," dense_35 (Dense)            (None, 5)                 325       \n","                                                                 \n","=================================================================\n","Total params: 123,205\n","Trainable params: 123,205\n","Non-trainable params: 0\n","_________________________________________________________________\n"]}]},{"cell_type":"markdown","source":["## Model fitting"],"metadata":{"id":"Ce3dRKJAPE37"},"id"
…
